arabeitak_flutter_ui/gesture_server_side/model/keypoint_classifier/keypoint_classifier.tflite (tflite, 6484 bytes, 6 tensors)

sequential_1/dense_5/BiasAdd/ReadVariableOp f4 [2]
00000000: 558a 10be 548a 103e
-0.1411527 0.14115268

sequential_1/dense_4/BiasAdd/ReadVariableOp f4 [10]
00000000: fc54 b0bd f7ee 303e a3da b23d 64c7 273e
00000010: c0b4 8c39 6d8b 503e bd04 3e3e f76a 4b3e
00000020: abea 273e c9ba 8cb9
-0.086099595 0.17278658 0.08733108 0.16384655 0.0002683755 0.20365687 0.18556495 0.19865023
0.16398112 -0.00026842047

sequential_1/dense_3/BiasAdd/ReadVariableOp f4 [20]
00000000: b2c9 c3bc 8a6f dd3d 7c79 4fbc ab22 ffbb
00000010: 17fd 433e 21c2 d63d ea02 3a3e 2c4e 293e
00000020: e91c 8dbc 2bdf a9bd 1ad9 1e3e 2aac d0bc
00000030: f3ef 31bd d11d 07bd 3ef3 13bd 1761 33bd
00000040: dcab 333e 0038 0e3d e343 203c 88e7 16bc
-0.023899887 0.1081229 -0.0126632415 -0.007786115 0.19139515 0.10486246 0.18165174 0.16533726
-0.0172257 -0.08294519 0.15512505 -0.02547272 -0.043441724 -0.03298742 -0.036120646 -0.043793764
0.17546028 0.034721375 0.00978181 -0.009210475

sequential_1/dense_3/MatMul f4 [20, 42]
00000000: 6200 393e a542 04be 86e2 ff3c 3b0b 133f
00000010: f71b dc3e 1cbc bc3d 363d e63d f00f a83e
00000020: eb4a b23d 9d7a 73bd a1bf 83bd 2888 003e
00000030: f09d 6c3e 6308 c33d cb41 193e 9783 603e
00000040: 0e53 5f3d 9e96 25be 55bc 9abe ada4 a1be
00000050: 1d47 4b3d 1d54 dfbd f48b 59bd b409 97be
00000060: 4357 993e e845 203d 83f5 89be bb7f 9abe
00000070: 0c33 60be cbca 0abe f9b7 8d3e 7169 1abd
00000080: c0b8 143e 744c 46be d1b7 01bf a91b 873c
00000090: 8c86 143d a30a 30be 6f8c b0be 3efc acbe
000000a0: 676e eebd 9cb1 6dbe 4f9e 95be 76ba f8bd
000000b0: 8167 20be ddec cabe 492a b9bd c4c3 67be
000000c0: ba94 b8be 14b7 9ebe d374 45bd 46ec 89bd
000000d0: eeac 1ebd e572 30be b399 4bbd acf5 44be
000000e0: 8b10 b73c 85d3 9cbd e5d0 34be a44e 24be
000000f0: dbae 873d bcc9 e03d 1133 423e ff00 9d3d
00000100: ab8b 18be 6c80 d9bc 0a67 e23b f226 46be
00000110: 561a db3e e5c2 bc3d e75f 823e feb7 4d3d
00000120: 65c6 5a3c f09e 343d 7aef 003e 1a64 f83c
00000130: 9c9d 743e 7e26 b03e d6a4 2f3e 2572 a43e
00000140: 4aae 0bbe e34f 403e 806d e2bd 1caf 963e
00000150: 9061 8e3e b463 68be 407a 653e a838 1e39
00000160: 8c94 c83e 27de e03e 8133 803e db5b 543e
00000170: d867 253e 1ce0 0ebd 3257 dbbd 218f 6ebe
00000180: e939 d63d 9e50 713b 9546 ff3d dab4 b0be
00000190: db5b 333e 8e2d c03d c311 9cbe 478c fd3d
000001a0: 52cc 37be 3c7e 07bd bd73 6c3e 6af1 733d
000001b0: 1ee1 b53e 3de5 13be dfa7 98be 9e79 9ebe
000001c0: 8d2a 89be 2503 2abe 16e8 a1bd a5fc 20be
000001d0: b2f2 b0bc c800 dabd 4f6e 34bc c1a7 d7be
000001e0: a1c6 28be b03a efbe f4a4 a2be a9a4 bc3d
000001f0: 70d5 a2be 72cd c13d 1261 043e 377c 13be
00000200: 5d0e cbbd fe42 97be 1292 023e d114 a7bc
00000210: 46b3 123e 6cdf e2be 3fce e7bd 5184 85bd
00000220: 4cbc 123e f928 1ebe 038d c6bd 2caf 51bd
00000230: 0081 68be a936 5a3e a9d4 a5be 345c 733d
00000240: e73a fabd 79fd 98bc 8856 813e 81b1 aa3e
00000250: e71e aabe f395 23be f730 bb3c 9d76 e0bd
00000260: d800 ad3e 29c9 a43e 635d c33e 7e5e 2fbc
00000270: ee2b acbe e215 53bd b269 273d aea7 1ebe
00000280: a597 373e 93e1 bbbc f1ef 073d 63b2 5d3e
00000290: 0203 b73e e61b 10bd 429c 853e 5fd7 473e
000002a0: 8297 f0bd 88bf d9bd 92f7 00bf 55cd 7ebd
000002b0: 8f02 54be dad7 22bc 8e7c 7ebe 3fbc a1be
000002c0: 520c c4bd 6b3f 61be 5933 04be f7f8 bf3d
000002d0: f771 943e 3fd9 83be c6f6 37be 1a82 18be
000002e0: ea39 52be d024 9ebe 4433 9b3e 1bea b03c
000002f0: 090d 5ebd dd68 e8bd bfc6 6bbd de67 053e
00000300: 189f 863d 53e1 4c3d 1dbf 25bd ca04 173e
00000310: 0462 103d fa43 eabd 9951 e7bd 67c7 ca3d
00000320: ec71 81bc f8e4 5a3e 1bc8 ba3e d055 8b3e
00000330: 33ca 643e 470f b43e 7f7c 273e 57b1 c53e
00000340: efb2 cd3c a64e a03e 5249 5fbe 4a78 13be
00000350: ae21 50be c4d8 65be b214 c3be 7b19 debe
00000360: 7c51 9abe 267f 11be 5f8f b0be 7a4a a6be
00000370: b964 873e 39ff 2f3e baa9 27bd ff19 0abe
00000380: 60a0 bd3d 9bbb 19be 64ca b5be 8610 4a3e
00000390: ac0d d73e 7a3c 5ebc 72e7 e93c 5f71 80bd
000003a0: 6cc1 a93c 25d9 29be eff6 81bd 4809 c03d
000003b0: 958e b13e dc63 db3d c8fd 3abd 5b64 903e
000003c0: d006 5b3e 596d 35be 2be8 9b3e 9214 15be
000003d0: 96c6 cf3e 960a a7ba 56ce 833e 7349 8f3e
000003e0: 3ff1 963e 1d7e 51bd 1314 3fbc af16 833e
000003f0: 9683 2b3e f870 1b3d aa78 3bbe ac51 0bbd
0.18066552 -0.12916048 0.031235944 0.5743901 0.42990085 0.092155665 0.11242144 0.3282466
0.08705696 -0.059443105 -0.06433035 0.1255194 0.23107123 0.09523084 0.14966504 0.21925198
0.054522566 -0.16170737 -0.3022181 -0.3157095 0.049628366 -0.10904715 -0.053111985 -0.2949959
0.29949388 0.039129168 -0.26945123 -0.30175576 -0.21894473 -0.13553922 0.27679422 -0.037698213
0.14523602 -0.19365102 -0.50671107 0.016492682 0.036261126 -0.17191558 -0.34482142 -0.33786196
-0.11642151 -0.23212284 -0.29222342 -0.121449396 -0.15664484 -0.39633837 -0.090412684 -0.22633272
-0.3605097 -0.30999053 -0.048207115 -0.06734519 -0.038739137 -0.17231329 -0.049707126 -0.19234341
0.022346755 -0.07657532 -0.17657812 -0.16045624 0.06625148 0.10975978 0.18964793 0.076662056
-0.14897029 -0.026550494 0.006909256 -0.19350794 0.4279353 0.09216861 0.25463793 0.050224297
0.013352965 0.044096887 0.12591353 0.03032117 0.23888248 0.34404367 0.17152724 0.32118335
-0.13640705 0.18780474 -0.11056042 0.29430473 0.2780881 -0.22694284 0.22409916 0.0001508916
0.39175832 0.4391949 0.25039294 0.20738165 0.16152894 -0.034881696 -0.107099906 -0.23296787
0.10460264 0.0036821733 0.12464634 -0.3451298 0.17515509 0.09383689 -0.304823 0.123802714
-0.17949036 -0.03307937 0.23091026 0.059556402 0.35523313 -0.14442916 -0.29815575 -0.30952162
-0.26790276 -0.16602762 -0.07905595 -0.15721376 -0.021600101 -0.1064468 -0.011012628 -0.42120174
-0.16482021 -0.46724463 -0.31766474 0.09211094 -0.31803465 0.09463014 0.12927654 -0.14402853
-0.09914849 -0.29543298 0.12751034 -0.020395668 0.143262 -0.44311082 -0.11318635 -0.06519378
0.14329642 -0.15445317 -0.096948646 -0.051192448 -0.2270546 0.21309914 -0.3238881 0.059414104
-0.12218266 -0.018675553 0.2526133 0.3333855 -0.33226702 -0.1597517 0.022850497 -0.10960124
0.33789706 0.32184723 0.38157186 -0.010703681 -0.33627266 -0.05153454 0.040872283 -0.15493652
0.17928942 -0.02293471 0.03318781 0.2165008 0.35744482 -0.035182856 0.26095778 0.19515751
-0.11747648 -0.10632235 -0.5037776 -0.06220754 -0.20704101 -0.009939158 -0.24852201 -0.31588933
-0.095726624 -0.21996848 -0.12910213 0.09373658 0.28993198 -0.25751683 -0.1796523 -0.1489338
-0.20529905 -0.3088746 0.3031255 0.021596005 -0.05421165 -0.11348126 -0.057562586 0.13027903
0.065733135 0.050019573 -0.040465463 0.1474792 0.035249725 -0.11438747 -0.112948604 0.09901314
-0.015801392 0.21376407 0.36480793 0.27213907 0.22342758 0.35167906 0.16356085 0.38611862
0.025109736 0.31310004 -0.21805313 -0.14401355 -0.20325348 -0.22445971 -0.38101727 -0.43378815
-0.30140293 -0.1420866 -0.34484383 -0.32478696 0.26444033 0.17187203 -0.04093335 -0.13486479
0.09259105 -0.15012972 -0.35505974 0.19732866 0.42002618 -0.013564223 0.028552745 -0.06271624
0.020722114 -0.1658674 -0.06345927 0.0937677 0.34679094 0.10712406 -0.04565218 0.28201565
0.21389318 -0.17717494 0.30450568 -0.14558628 0.40581197 -0.0012744244 0.2574336 0.27985725
0.2948093 -0.05114566 -0.011662501 0.25603244 0.16749415 0.037949532 -0.18307748 -0.034013435

sequential_1/dense_4/MatMul f4 [10, 20]
00000000: cc7f afbd b709 3dbe 026e 1cbd 9143 13bd
00000010: ef9d 2f3f 89bf d33e 0926 a63d ff1f e63e
00000020: 3e72 12be 159b 463c 6e7e 3e3e f3ef 11be
00000030: cdeb af3e f315 aa3c 8543 5b3d 7586 e43e
00000040: 927c a93e d0a8 5c3e 5393 08be d7c0 d2be
00000050: 284a 343f 98ea 2dbe 4bbf 943e e60c febe
00000060: 49f9 01bf ea2e 69be 730f 6abe 2c96 b03e
00000070: 2abb 6a3e a9e4 b4bb 5f24 c1be d6f7 493c
00000080: 9169 973e e5fe c43d fdcc 1a3d 1341 6e3e
00000090: 7831 553e bcee 533e 1371 093f 74fe d83e
000000a0: 8186 413e bb26 bf3e 2790 0dbe f84c d73d
000000b0: e5b7 0ebe 480e d43e 930d 0cbd c5cf e03e
000000c0: aaaa 8bbe 23ed 533d 10a0 433c e2f1 ad3e
000000d0: b720 6bbe 8c5f b4be 78b6 313e 0742 6bbd
000000e0: 03ae b13e a129 433e 9599 adbd a2a4 cfbe
000000f0: 5adc 78be fce1 033f 244d d9be c639 fbbb
00000100: 6c22 0f3f 42f0 803e 102f cf3e cf40 553e
00000110: f7df 2f3d 5ef9 8dbe d127 d03e 9e9f fbbb
00000120: a52f 13be 38cb 603e e559 23be bbea b8be
00000130: 664d 293f c968 c4be ce95 643d 762a 61be
00000140: 68cf 71be a80a 023f 7350 dbbc 269e 493e
00000150: e4ba 09be 6057 d4be f609 56be 2997 5e3d
00000160: 4ac7 46be d5f7 7dbe 3cda b2be d05b fdbc
00000170: 11bc 6dbe 7704 1e3c 7fed 673e 229d 583e
00000180: 6986 a0bb 2094 4cbe aaae ee3c f798 0abd
00000190: 507d 853e 3247 fbbe 3d1d bb3e 372a b3be
000001a0: d80d 25bf 75c2 7c3e ae94 10bf fcd2 8c3e
000001b0: e9f3 ce3e 138c bd3e b835 17be bd2f 083e
000001c0: 88dd 133f 04c5 483e 2197 20be c901 383e
000001d0: 99c5 a0be f90b 82be 2f29 1d3f 9013 623e
000001e0: d70a bfbd 0676 0b3f 8e56 f6be 702f 083f
000001f0: 9085 053f 680b a6bc ef25 dbbb 9910 233f
00000200: 0b8b b9bd b09e abbe 673f 203f 3937 ddbe
00000210: 915e 563c c8c4 28be 96df 76be 8d1e 7b3e
00000220: 3cab 703e 0495 493e 9b7f 463d 3aac ccbe
00000230: 8ca1 a6be 593f 673e fc65 a7be 329b e5bd
00000240: a6b9 073f 9117 a93e c3fa 903d 4e7b afbd
00000250: ee1e 74bd 306b 86be 1f5e 9f3e 3bfc 1bbb
00000260: efc8 a33e 35f7 813d a5fe 9dbe a514 aebe
00000270: 9bc8 623e 3ae3 d7bc 6f6d 20be cd84 02be
00000280: 1b43 9cbd 3e7e 063f 7bba f2be 033e 403e
00000290: 6d1c 283f 99be ee3e 8b52 ff3e e90b ec3e
000002a0: 6c1f cfbd 605b 49be 6ecf 0c3f 4df0 9b3d
000002b0: 6503 31bc c265 74be 0779 70be 12fe 94bd
000002c0: 8561 813d 7667 483e afb5 17be 27db e3bd
000002d0: f42f b6be c1ec 6e3e 2868 80be b01f 513e
000002e0: 16d3 8abd fa1b 82be 16dd 213e 695a a2be
000002f0: 09c8 c93d 6331 8ebe db48 543e 5db1 c03e
00000300: aa4e b73c 2878 53be ec35 38be 36fa cdbd
00000310: 2a75 213f 54b8 8fbd 4a9b 433e 9b71 dbbc
-0.08569297 -0.18460737 -0.03819085 -0.03595311 0.6860036 0.41357067 0.081127234 0.44946286
-0.14301392 0.012121935 0.18602917 -0.1425169 0.3435959 0.02076242 0.05353119 0.44633833
0.33102852 0.21548772 -0.1333745 -0.4116275 0.70425653 -0.16984022 0.29052195 -0.49619216
-0.50771004 -0.22771803 -0.22857456 0.34489572 0.2292296 -0.0055204225 -0.3772306 0.012327155
0.29572728 0.0961893 0.03779315 0.23267011 0.20819652 0.20696539 0.5368816 0.42381632
0.18898965 0.37334237 -0.13824521 0.105127275 -0.13937338 0.41417146 -0.034192633 0.43908516
-0.27278644 0.051739823 0.011940017 0.33973604 -0.22961698 -0.35229146 0.17354763 -0.057436015
0.34703073 0.19058849 -0.08476559 -0.40555292 -0.24302807 0.515167 -0.42441666 -0.0076667992
0.559119 0.25183302 0.40465593 0.20825504 0.0429382 -0.27729315 0.40655378 -0.00767894
-0.14373644 0.21952522 -0.15952261 -0.36116585 0.66133726 -0.38361195 0.055806927 -0.21988854
-0.23614275 0.5079751 -0.02677176 0.19689235 -0.134502 -0.41472912 -0.20902237 0.054343376
-0.1941196 -0.24801572 -0.34932125 -0.030927569 -0.23216273 0.009644619 0.22649191 0.21153691
-0.0048988354 -0.1997838 0.02913602 -0.033837285 0.26072168 -0.49077755 0.36545745 -0.34993145
-0.6447425 0.24683554 -0.5647687 0.27504718 0.40420464 0.3702093 -0.14766586 0.1329946
0.57759905 0.19606405 -0.15682651 0.17969431 -0.31400755 -0.2539976 0.61390966 0.22077775
-0.093282394 0.54476964 -0.4811291 0.53197384 0.52156925 -0.02026911 -0.0066878716 0.636972
-0.090597235 -0.33519506 0.62596744 -0.43206194 0.01308407 -0.16481316 -0.24108729 0.24523373
0.2350282 0.19685751 0.048461538 -0.39975148 -0.32545125 0.22582759 -0.32694995 -0.11211242
0.5301765 0.33025792 0.07079079 -0.085684404 -0.05959981 -0.26253653 0.31126496 -0.0023801464
0.31989238 0.06345979 -0.3085834 -0.34000126 0.22146837 -0.026353467 -0.15666746 -0.12745972
-0.07629987 0.5253638 -0.47407898 0.18773656 0.65668374 0.4662979 0.49867663 0.46102837
-0.10113415 -0.19663763 0.5500401 0.07614193 -0.010804032 -0.23866943 -0.23483668 -0.072750226
0.063174285 0.19570717 -0.148154 -0.11125784 -0.3558346 0.23332502 -0.25079465 0.20422244
-0.06778543 -0.2541197 0.15806994 -0.31709602 0.09852607 -0.27772054 0.20730917 0.37635317
0.022376377 -0.20651305 -0.1798932 -0.100574896 0.63069403 -0.0701758 0.19102207 -0.02678757

sequential_1/dense_5/MatMul f4 [2, 10]
00000000: 16b8 d13e 23da 41be a17a d93d 103c 173e
00000010: 9af8 7f3e 0068 123e 7c98 d5bd 3426 293e
00000020: 5818 8ebe 0efd c73e 7fa5 24bd 5d4b 3e3f
00000030: 1c86 26bf 4f56 ddbe 07ca 20bf 9ed0 6b3f
00000040: f12e 01bf 5c68 29bf 33b0 60bf 852d 0bbf
0.4096076 -0.18930869 0.10619093 0.14769006 0.24997178 0.14297485 -0.10429475 0.1651848
-0.27752948 0.39060253 -0.040196892 0.74333745 -0.65048385 -0.4322991 -0.6280827 0.921152
-0.5046225 -0.66174865 -0.8776886 -0.5436633
