app/src/main/assets/keypoint_classifier.tflite (tflite, 6660 bytes, 6 tensors)

sequential_1/dense_5/BiasAdd/ReadVariableOp f4 [6]
000000 5e 15 fd 3c 8b 8d 2c be b9 7b 7c be e6 20 0b be
       0.030893978 -0.1685087 -0.24656571 -0.13586769
000010 df ce 3b be f8 43 22 3e
       -0.18340634 0.1584624

sequential_1/dense_4/BiasAdd/ReadVariableOp f4 [10]
000000 40 0e ce bd a7 ad a7 3c 2e 11 b7 3d c2 93 13 3e
       -0.10061312 0.020468546 0.08938824 0.14411834
000010 5f 2a 8d 3e 53 f9 ad 3e 51 ff a8 3e 4c 1d 6b 3e
       0.2757139 0.33979282 0.3300729 0.22960395
000020 52 96 4d 3e 00 b0 04 3f
       0.20076874 0.51831055

sequential_1/dense_3/BiasAdd/ReadVariableOp f4 [20]
000000 bc aa 3a bd 35 97 7d bd 5b 47 76 3d 8a 4f b2 3a
       -0.04557298 -0.06191178 0.060126644 0.0013604027
000010 dc a9 40 3e b9 8c 3b 3d 50 1b b9 bc b4 01 06 bd
       0.18814796 0.0457885 -0.022596031 -0.032716468
000020 92 02 cd 3d 54 89 54 bc 7f 43 dd 3d 4e 94 1e 3e
       0.10010256 -0.012972195 0.108038895 0.15486261
000030 2e c2 4c 3c 64 66 0c bd 90 df 31 bc 14 a1 f0 3d
       0.012497468 -0.034277335 -0.010856524 0.11749473
000040 8b 12 78 bd b4 ba 99 bc cb ce aa 3b 5d a6 03 3d
       -0.06056456 -0.018765785 0.00521264 0.03214108

sequential_1/dense_3/MatMul f4 [20, 42]
000000 33 dd 71 be 7e 6d 2f bd b6 df 19 3e 2f 9b 95 bc
       -0.23619537 -0.04282903 0.15026745 -0.018262474
000010 62 a0 7f be 64 2e a2 bd a4 a1 a4 3c 97 03 8f bd
       -0.24963525 -0.079190046 0.020096608 -0.069831066
000020 5d bc b4 be 54 27 83 3e 43 cc 82 be fb 04 8a be
       -0.3529996 0.25615942 -0.25546464 -0.26956925
000030 2c 35 88 bd 83 2c ee 3d 06 c9 a9 3d de 54 9a be
       -0.06650767 0.11629584 0.08290295 -0.30142874
000040 95 65 60 be 95 20 36 3e 0d 21 a0 bd 7c 03 83 be
       -0.2191375 0.17785867 -0.07818804 -0.25588596
000050 d0 96 96 3d b8 21 5f 3e 49 65 93 be 1e 84 69 3e
       0.07352984 0.21790206 -0.28788212 0.22804305
000060 71 fc 8e be 0f 52 43 3c 3b d4 9a 3d e9 1b 7e be
       -0.27926973 0.01192142 0.07560011 -0.24815334
000070 44 0a 96 be 9e 6d 85 3e fa 58 e9 bd 37 be 7b 3e
       -0.29304707 0.26060194 -0.11393924 0.2458428
000080 49 43 17 bd ac 40 42 be 95 6f 2f bd b7 be 5f be
       -0.036929403 -0.18969983 -0.042831022 -0.21850096
000090 ef f5 15 3e 92 3d 87 3e 84 e7 93 bd 77 b6 3f 3e
       0.14644597 0.26414162 -0.072218925 0.18721949
0000a0 f0 0f 4c be 80 8e 60 be e1 09 48 3e 2a 64 29 be
       -0.19927955 -0.2192936 0.19535019 -0.16542116
0000b0 db 9d 87 be ab ff 40 3e 32 41 18 3e 3e 6d 55 bd
       -0.26487622 0.1884753 0.1486862 -0.052106135
0000c0 26 5f 03 be 5e 6d d9 3d 62 04 8f be d2 4d 78 be
       -0.12829265 0.10616563 -0.2793303 -0.24248436
0000d0 aa 49 12 be 4e c8 ec 3d b1 ef 52 3b 2c ee a2 be
       -0.14285913 0.115616426 0.0032186324 -0.31822336
0000e0 4a 2a 48 be 5a 5b 9b be 5f a4 93 be b8 df a7 3d
       -0.19547382 -0.30343133 -0.28836343 0.08196968
0000f0 61 c5 b2 be 39 d6 1f 3e 4c 4c 13 be 1e 43 6e be
       -0.34916213 0.15609063 -0.14384574 -0.2326779
000100 04 fb 6f 3e 2e 2d 4c be 4e 68 82 3e 02 e1 5d 3c
       0.23435599 -0.1993911 0.25470203 0.013542416
000110 61 5d 90 3d d5 77 6f 3e 7e 69 dd bd ac 84 ae be
       0.070490606 0.23385556 -0.10811137 -0.34085596
000120 8b 6f 8b be 9b f1 2b 3e 1c d1 d0 3d 72 8b 76 be
       -0.27233538 0.16791384 0.101961344 -0.24076632
000130 87 a5 60 be 63 a0 84 be c8 6e 1f 3e 83 e7 2e 3e
       -0.21938144 -0.25903615 0.15569603 0.17080502
000140 3a 10 91 3d 9d 8e 40 3e d2 0b b4 bc 64 fa e9 3d
       0.07083173 0.18804403 -0.021978293 0.11424711
000150 d1 38 41 3e 1b b9 e8 3a 10 fd c9 bd a3 6a 9c bd
       0.1886933 0.0017755361 -0.09862721 -0.07637527
000160 95 38 27 be d3 e7 60 3e 33 69 09 3e 05 80 78 3e
       -0.16330178 0.21963434 0.13419037 0.24267586
000170 f8 56 03 3d e6 03 a4 3e ff ec 97 be e6 42 c7 bd
       0.03206536 0.32034224 -0.29673 -0.09729557
000180 71 f9 5d 3e 06 d8 91 3d 52 6e 95 bd 61 f5 25 3e
       0.21677186 0.07121281 -0.072964326 0.16206886
000190 41 a5 02 3e 4a 26 60 3e df 0e 5b be e7 57 1c 3e
       0.12758352 0.21889606 -0.21392392 0.15267907
0001a0 24 a8 77 be ae 7b c8 3d 84 78 01 bd a5 cb 78 be
       -0.24185234 0.09789215 -0.031609073 -0.24296434
0001b0 65 10 a0 be 10 d0 84 3e d2 8a aa 3e 34 08 7c 3d
       -0.31262508 0.2593999 0.33309036 0.06153126
0001c0 52 ef af 3e a8 14 07 be a5 60 52 3d 9d 25 e2 3d
       0.34362274 -0.13191473 0.0513617 0.110423304
0001d0 66 5e 3a be 1c 34 59 be 49 bd 8b 3d 29 cf a6 3d
       -0.18200073 -0.21211284 0.06823213 0.081449814
0001e0 cd b6 be 3d 8d b9 0f 3d 45 75 5b 3e c8 40 79 be
       0.0931221 0.035089064 0.21431454 -0.24341118
0001f0 ab 91 22 3e 46 99 8b be 15 57 88 3d bf 46 92 bd
       0.1587588 -0.27265376 0.066572346 -0.071424
000200 9e be 18 be c6 f5 8a bd b7 4c 9c bd e0 77 56 3e
       -0.14916465 -0.06785159 -0.0763182 0.20944166
000210 dd c5 d6 be 22 35 16 3e 5a 65 d0 bd 32 23 86 3e
       -0.41947833 0.14668706 -0.10175581 0.26198727
000220 0e 44 13 bc b7 cd 66 be 85 39 9b be cb 4e 92 3e
       -0.0089883935 -0.22539411 -0.3031732 0.2857574
000230 57 1b 39 bc 7d 4e 6e 3d 9d 49 05 be 00 c4 cb bd
       -0.011298022 0.05818032 -0.13016362 -0.099494934
000240 75 dd cc bb 26 82 95 3e 58 b3 ca 3d 69 2f 2b 3e
       -0.0062519857 0.29200858 0.09897488 0.16717304
000250 90 9b 78 be f7 be f7 3d 57 b6 b9 3d eb f8 2e bc
       -0.24278092 0.120969705 0.09067982 -0.010679464
000260 f4 49 77 3e 1f 8f 02 be 6b e3 4c be dd 74 87 3e
       0.24149305 -0.12749909 -0.20008628 0.26456347
000270 32 4c 0a 3e 67 f7 0c bb 90 7a 05 bd 7d fc 70 3e
       0.13505629 -0.0021509768 -0.032587588 0.23533817
000280 0e 3b bf 3e de 4f 0d be 1c ca 5c 3e a7 8a 78 3e
       0.37349743 -0.13799998 0.21561474 0.24271642
000290 4b 26 d0 bd cb 74 19 be 3a 73 a1 3d 41 74 58 3e
       -0.10163554 -0.14985959 0.07883306 0.21138097
0002a0 4e 79 eb bd 75 ee 0a be d4 7b d4 3e 6e 93 7d bc
       -0.114977464 -0.13567527 0.41500723 -0.0154770445
0002b0 82 44 da 3e 59 10 42 3d ff d8 e4 3e a4 ff 71 3e
       0.42630392 0.04737887 0.44696805 0.23632675
0002c0 ea 1c b2 3e b7 31 ba bd 8e a2 c1 3e b4 33 d7 3d
       0.34787685 -0.090915136 0.37819332 0.105079085
0002d0 5b d0 22 3e e2 9d 07 be e4 22 0b 3e 97 0e 2d be
       0.15899794 -0.13243821 0.13587528 -0.16900097
0002e0 30 4b d1 3e b1 8e 6d be 34 77 54 3e 71 1d db 3d
       0.40877676 -0.23198964 0.20748597 0.10698975
0002f0 6d 49 27 3e 8f 06 39 be bb 6c 82 3e 5f 29 6a be
       0.16336603 -0.18068908 0.2547358 -0.22867344
000300 05 ff 6b 3e 9c 0a e6 be ba db 3a be c5 bb 6e 3b
       0.23046501 -0.4492997 -0.18247882 0.0036427837
000310 ee 30 5a be 57 eb 2a bd 38 c6 89 be f4 5f 75 3d
       -0.21307728 -0.041728344 -0.2690904 0.05990596
000320 3e b8 b2 bc e5 b7 d1 be 17 16 94 be 69 63 10 be
       -0.02181637 -0.40960613 -0.28923103 -0.14100422
000330 b9 6f 26 bd e4 10 e5 bd e2 8b cb be 61 e2 f6 bc
       -0.04063389 -0.11184862 -0.3975516 -0.030137243
000340 56 16 c4 be ff 42 bc be fc 53 a0 3e 4e e5 0f 3d
       -0.3829829 -0.36769864 0.31314075 0.03513079
000350 db 32 c2 be 7d fa 94 3e 6d 6d 01 be 66 73 df 3c
       -0.37929425 0.29097357 -0.12639399 0.027276706
000360 75 c3 25 be 23 3d 36 3e ae ff d9 bd d9 04 6c 3e
       -0.16187842 0.1779676 -0.1064447 0.23048724
000370 08 b2 1b be 51 46 19 be 0d 38 01 be 4c ba 91 3e
       -0.15204632 -0.1496823 -0.12619038 0.28462446
000380 78 40 81 be 02 41 44 bc d6 f9 2b bd 8e 29 f7 ba
       -0.25244498 -0.01197839 -0.04198631 -0.0018856989
000390 8c fa 80 be 25 35 27 3d 64 c2 eb bc b2 ad 3b be
       -0.25191152 0.040822167 -0.028779216 -0.18327978
0003a0 77 a1 6c 3b 96 e4 ce bd 55 7d a1 be a7 79 08 3c
       0.0036106983 -0.10102193 -0.31540933 0.008329785
0003b0 0e e0 de 3d d0 3c 3b be 7a c2 11 3e dc 9b a8 3d
       0.10882579 -0.18284917 0.14234343 0.08232853
0003c0 5d c3 02 bd 04 c3 6e 3d 9a 16 7c 3e 9a e1 c2 3c
       -0.031924594 0.05829145 0.24617997 0.023789216
0003d0 34 69 79 3d 23 64 36 bc ee 11 6c 3d 17 1c 26 39
       0.060891345 -0.011132273 0.057634287 0.00015841458
0003e0 53 9c ee 3e c2 82 27 3e 4f a2 80 3e 2a 9e 06 3e
       0.4660364 0.16358474 0.25123832 0.13146272
0003f0 12 f5 7e 3e de 79 38 3d 2c 09 05 be 3c 3b 8f bc
       0.24898174 0.045038097 -0.1299178 -0.0174843

sequential_1/dense_4/MatMul f4 [10, 20]
000000 19 fb b8 3e 3e 1b d4 3e 52 3b 68 3d c8 fb 91 be
       0.36129072 0.41427034 0.056697197 -0.28512406
000010 92 2b 17 3f b9 a2 83 3e 61 44 5a bd d7 34 70 bd
       0.5905086 0.25710085 -0.053287867 -0.058644142
000020 dc 44 92 be 8c 66 b6 3d 3c 2b fd 3d 17 98 6e be
       -0.2856816 0.08906278 0.12361762 -0.23300205
000030 28 14 96 be 79 c3 83 3e 3a c2 d8 bd c4 a1 87 be
       -0.29312253 0.2573507 -0.10583921 -0.26490605
000040 a5 bd e6 be c8 a7 0e be 1e 73 91 be 0a 4b 8b be
       -0.45066562 -0.13931191 -0.2840814 -0.27205688
000050 9c 0c e3 be 4b d2 ee be fe e6 9b be 9c 0d ec 3d
       -0.44345558 -0.46644816 -0.3044967 0.11526033
000060 7a 67 19 3f ad 68 1b be a2 cd 0e bf af 1f 8f 3e
       0.5992352 -0.1517665 -0.5578252 0.2795386
000070 47 1b 0e 3e 2d 85 ba be b5 aa a8 3e 9f 3b 5a 3e
       0.13877593 -0.3642973 0.3294274 0.21311806
000080 58 09 d2 be f6 fd a6 be 6e 19 91 3d bd 34 34 3e
       -0.41022754 -0.32615632 0.070849285 0.17598243
000090 57 60 cb 3b 1e ff 5f be 51 8d dd 3e de 8d d9 3e
       0.006206553 -0.21874663 0.43271878 0.4249105
0000a0 9a 0d d9 3e d1 5b f8 bb 06 06 88 3c 1f 6e d9 bd
       0.4239319 -0.0075793047 0.016604435 -0.10616707
0000b0 02 29 dd 3e 1b 6b 26 bd 1b ce 1f 3b 03 65 b0 be
       0.4319535 -0.040629487 0.0024384323 -0.34452066
0000c0 24 29 0b 3e 39 d5 bf 3c 42 4d 38 3f 34 15 03 3e
       0.13589913 0.023417102 0.71992886 0.12801057
0000d0 32 43 8b be 1f 4a e0 be c9 11 02 bf 82 52 5e b9
       -0.27199703 -0.4380655 -0.5080839 -0.00021202306
0000e0 16 f1 8a be c1 6c 19 be ef ba 11 3f 0f 9d eb 3e
       -0.2713706 -0.14982893 0.56925863 0.46018264
0000f0 fb ab 6f be fc 3f 90 be 91 4e 6d 3e 13 a3 51 bd
       -0.23405449 -0.28173816 0.23174502 -0.05118091
000100 f4 86 cf be c7 d1 d1 bc b0 2c 40 3f 4d b2 00 3f
       -0.4053265 -0.025612725 0.7506819 0.50272065
000110 8b 1b c5 3e 1d c1 13 3f 52 95 00 be 18 b2 36 3e
       0.38497576 0.5771654 -0.12556961 0.17841375
000120 ab 81 0a 3e 52 6c a0 3d c2 c1 38 3f b2 ae 03 3e
       0.13526027 0.078331605 0.7217065 0.1285961
000130 0b d2 82 be f7 08 55 3e cf 90 42 be 97 69 02 be
       -0.25550875 0.20804201 -0.19000553 -0.12735592
000140 a9 c9 32 3e 20 38 cf 3e 0f 01 cc 3e 49 62 f0 3e
       0.1745974 0.40472507 0.39844558 0.46949986
000150 15 b7 8c be d3 1a be be f2 4f 89 3e db 03 e7 3e
       -0.2748343 -0.3712984 0.26818806 0.4512013
000160 45 7f cb 3e 48 b5 65 bd d2 23 a4 bd b3 7d 00 3e
       0.39745536 -0.056081086 -0.08014645 0.1254795
000170 d6 e9 da 3e fd 01 68 3c eb 27 bc be 29 3c 3c 3e
       0.42756528 0.01416063 -0.36749205 0.18382324
000180 2f 96 f7 3e 13 00 e5 3e be 43 8c be 80 e7 30 3e
       0.48356768 0.4472662 -0.27395433 0.1727581
000190 5a 84 c7 be c0 fb 94 be bb 7a cc 3e 63 0d d1 3d
       -0.38968164 -0.2909832 0.39937386 0.102076314
0001a0 d1 cc 03 3f 2a 6f 9d 3e 4a bc 6c bd c8 32 bb bd
       0.514844 0.30748874 -0.057796754 -0.09140545
0001b0 8f 05 a1 3e 93 cd 1e be d0 07 12 3e f4 b4 ea 3d
       0.31449553 -0.15508108 0.14260793 0.11460295
0001c0 c1 9e 10 be ff 66 a8 be 54 ea 84 3e f9 7b 12 3f
       -0.1412306 -0.3289108 0.25960028 0.5722042
0001d0 4d dd be bc b8 0b 12 be 20 5f 88 3d 35 6c c1 3e
       -0.023298884 -0.14262283 0.06658769 0.37777868
0001e0 75 1c 10 3b 66 86 e2 bd 6d 66 3d 3e ba 0c 24 bd
       0.0021989618 -0.11060791 0.18496104 -0.0400512
0001f0 93 99 d6 3e 99 d5 68 3e 84 60 13 bf 69 2a 83 be
       0.41914043 0.22737731 -0.57569146 -0.25618294
000200 3b ca 45 bc da 42 37 be c0 10 cb 3e 40 04 81 3d
       -0.012072141 -0.17896596 0.39661217 0.06299639
000210 a6 c2 ca be fe 3e a0 3b f3 03 0c bf 03 c6 ca 39
       -0.3960163 0.0048903218 -0.54693526 0.00038675973
000220 65 c8 77 3e b4 69 13 be c7 e1 49 3f b2 17 46 3e
       0.24197538 -0.14395791 0.78860134 0.19344977
000230 0d a9 6e be 8c 85 9a be e2 b7 3f be 1d f6 3d 3e
       -0.23306675 -0.30180013 -0.1872249 0.18550916
000240 d2 0b 5f 3e f8 c3 09 3f 8f 74 36 3e 0c 1c cd 3e
       0.21781853 0.5381465 0.17817901 0.4006046
000250 dd 27 19 bd 0b 59 11 3f f3 ad 2c bf 79 b5 c0 3e
       -0.037391532 0.56776494 -0.67452925 0.37638453
000260 31 2e 20 3f 77 92 97 be 49 79 02 3f 80 32 ce 3d
       0.6257048 -0.2960393 0.50966316 0.10068226
000270 b3 cc a0 be 1d 58 0a 3f ca 7b 1f be 54 38 b3 3c
       -0.31406173 0.540407 -0.15574566 0.021877445
000280 17 db c9 be 1d ed 5a be 10 7d 0f 3e 62 6b 89 3e
       -0.39424965 -0.21379514 0.14012551 0.2683974
000290 1d 67 ba 3d cf 43 ca 3e b9 d3 23 3f 6c d5 00 3f
       0.091016985 0.3950486 0.6399494 0.50325656
0002a0 67 3d 8e 3e 7a 07 fb 3e 4f 44 01 bf 03 85 2e be
       0.2778122 0.49029142 -0.50494856 -0.17042927
0002b0 d4 3b 2e 3e 04 6e 0a 3e fc bc 02 3e 18 cc a5 be
       0.1701501 0.1351853 0.12767404 -0.32382274
0002c0 2f 88 af be 90 06 e9 3e d8 65 54 3e 01 55 bb 3e
       -0.34283587 0.4551282 0.20741975 0.3658829
0002d0 ce ce 78 3d b2 37 c9 bd 5e 59 d7 3e 69 d2 60 3e
       0.0607441 -0.09825076 0.4206037 0.21955265
0002e0 22 70 12 3d ef a8 00 bd a7 c5 c5 3e ca 55 dc 3e
       0.03575147 -0.031411108 0.3862736 0.43034202
0002f0 a9 c1 20 bf 15 de 4f 3d fd 2b 55 3e f8 ae 9d bd
       -0.627955 0.050748903 0.20817561 -0.07699388
000300 16 48 8f bb 09 4a 7e 3e 04 04 a9 bb 3d 82 f4 3c
       -0.004372607 0.2483293 -0.0051579494 0.029847259
000310 a4 88 3e be dc 23 b9 3c a9 b8 9c be 59 1a c3 3d
       -0.18606812 0.022600107 -0.30609635 0.0952651

sequential_1/dense_5/MatMul f4 [6, 10]
000000 c8 8e f3 3e 7e 60 0d 3f 2c ef 1d 3f b6 e8 2f bf
       0.4756987 0.5522536 0.6169307 -0.68714464
000010 05 2b 17 3d 4e 82 0b 3f 05 93 4c 3f 44 1e e5 be
       0.03690626 0.54495704 0.79911834 -0.44749653
000020 e3 04 2d be 49 6a fb 3c 2a 38 a2 be 67 b1 dd bd
       -0.16896395 0.03069033 -0.31683475 -0.108248524
000030 da 64 29 bf e6 84 bd be 05 9d 41 be 7f 1c f0 be
       -0.6616951 -0.37015456 -0.18907554 -0.4689674
000040 29 0a 3c bf c7 fa 1d bf bb bc 2f 3e f2 8e 7e 3e
       -0.73453003 -0.6171078 0.17161839 0.24859217
000050 f1 66 26 be ef 23 32 3d 8c a2 32 bf 1b 12 b4 bd
       -0.16250207 0.0434913 -0.69779277 -0.08792516
000060 82 64 7a be c3 cb bd be da 94 5f bf ea ab a1 3d
       -0.24452403 -0.3706952 -0.87336504 0.07894118
000070 c2 b3 cf 3d cd fb bc be bb 90 81 be 6f 3e 40 3e
       0.10141708 -0.3691086 -0.25305733 0.18773817
000080 bc 5f 05 3f 06 de ef bc 52 36 ba be d6 4d c1 be
       0.52099204 -0.029280674 -0.36369568 -0.37754697
000090 b9 39 a9 be b2 f8 a8 be 2c 25 43 3d d1 26 36 bf
       -0.3305185 -0.3300224 0.04764287 -0.7115298
0000a0 ea f2 06 3d f5 5a 0a bf 03 64 d7 bd c5 da 85 be
       0.032946505 -0.5404504 -0.105171226 -0.2614347
0000b0 3d 80 5b be e0 18 01 be 19 9a 1a bf 4f 70 9b be
       -0.21435638 -0.12607145 -0.60391384 -0.30359122
0000c0 d4 70 2a 3e 2e 84 07 bf 8c 21 c2 be 88 e3 07 bf
       0.16644603 -0.52936065 -0.3791622 -0.5308156
0000d0 72 79 3b bf 27 03 2c 3e 8f 37 76 3d 6c 6a e8 3e
       -0.73232186 0.16798078 0.06011158 0.45393693
0000e0 db 1a f8 be 22 43 19 3f 10 7c de 3e 3d 52 ef 3e
       -0.4845799 0.5986806 0.43454027 0.4674243
